…
hyper_params={'Heads': 20, 'dropout': {'init_node': 0.0, 'init_gat': 0.15, 'upd_node': 0.0, 'upd_gat': 0.15}, 'Epochs': 300, 'lr': 0.00025, 'weight_decay': 0.0001, 'Patience': 50, 'Patience_metric': 'BCE', 'min_before_dropout': 0.68, 'scheduler_factor': 0.5, 'scheduler_patience': 10}
model=GCN_GAT(
  (activation): ReLU()
  (conv1): GATv2Conv(1536, 1024, heads=20)
  (conv2): GATv2Conv(1024, 512, heads=20)
  (conv3): GATv2Conv(512, 256, heads=20)
  (batch_g1): BatchNorm(1024, eps=1e-05, momentum=0.1, affine=True, track_running_stats=True)
  (batch_g2): BatchNorm(512, eps=1e-05, momentum=0.1, affine=True, track_running_stats=True)
  (batch_g3): BatchNorm(256, eps=1e-05, momentum=0.1, affine=True, track_running_stats=True)
  (mlp): Sequential(
    (0): Linear(in_features=256, out_features=128, bias=False)
    (1): LayerNorm((128,), eps=1e-05, elementwise_affine=True)
    (2): ReLU()
    (3): Linear(in_features=128, out_features=64, bias=False)
    (4): LayerNorm((64,), eps=1e-05, elementwise_affine=True)
    (5): ReLU()
    (6): Linear(in_features=64, out_features=32, bias=False)
    (7): LayerNorm((32,), eps=1e-05, elementwise_affine=True)
    (8): ReLU()
    (9): Linear(in_features=32, out_features=16, bias=False)
    (10): LayerNorm((16,), eps=1e-05, elementwise_affine=True)
    (11): ReLU()
    (12): Linear(in_features=16, out_features=1, bias=True)
  )
  (gate_nn): Sequential(
    (0): Linear(in_features=256, out_features=128, bias=True)
    (1): ReLU()
    (2): Linear(in_features=128, out_features=1, bias=True)
  )
  (pool): AttentionalAggregation(gate_nn=Sequential(
    (0): Linear(in_features=256, out_features=128, bias=True)
    (1): ReLU()
    (2): Linear(in_features=128, out_features=1, bias=True)
  ), nn=None)
  (dropout): Dropout(p=0.0, inplace=False)
)
optimizer=AdamW (
Parameter Group 0
    amsgrad: True
    betas: (0.9, 0.999)
    capturable: False
    differentiable: False
    eps: 1e-08
    foreach: None
    fused: None
    lr: 0.00025
    maximize: False
    weight_decay: 0.0001
)
scheduler=<torch.optim.lr_scheduler.ReduceLROnPlateau object at 0x7f7c17fb7670>) 
…
