AE=AE_CNN(
  (softmax): Softmax(dim=None)
  (encoder): Sequential(
    (0): Conv2d(3, 16, kernel_size=(3, 3), stride=(1, 1), padding=(1, 1))
    (1): ReLU()
    (2): Conv2d(16, 32, kernel_size=(3, 3), stride=(1, 1), padding=(1, 1))
    (3): ReLU()
    (4): AvgPool2d(kernel_size=2, stride=2, padding=1)
    (5): Conv2d(32, 64, kernel_size=(3, 3), stride=(1, 1), padding=(1, 1))
    (6): ReLU()
    (7): AvgPool2d(kernel_size=2, stride=2, padding=1)
    (8): Conv2d(64, 128, kernel_size=(3, 3), stride=(1, 1), padding=(1, 1))
    (9): ReLU()
    (10): AvgPool2d(kernel_size=2, stride=2, padding=1)
    (11): Conv2d(128, 320, kernel_size=(3, 3), stride=(1, 1), padding=(1, 1))
    (12): ReLU()
    (13): Conv2d(320, 240, kernel_size=(3, 3), stride=(1, 1), padding=(1, 1))
    (14): ReLU()
    (15): Conv2d(240, 150, kernel_size=(3, 3), stride=(1, 1), padding=(1, 1))
    (16): ReLU()
    (17): Conv2d(150, 80, kernel_size=(3, 3), stride=(2, 2), padding=(1, 1))
    (18): ReLU()
    (19): Conv2d(80, 40, kernel_size=(3, 3), stride=(1, 1), padding=(1, 1))
    (20): ReLU()
    (21): Conv2d(40, 15, kernel_size=(3, 3), stride=(1, 1), padding=(1, 1))
    (22): ReLU()
    (23): Flatten(start_dim=1, end_dim=-1)
    (24): Linear(in_features=6000, out_features=4096, bias=True)
  )
  (decoder): Sequential(
    (0): Linear(in_features=4096, out_features=6000, bias=True)
    (1): Unflatten(dim=1, unflattened_size=(15, 20, 20))
    (2): ConvTranspose2d(15, 40, kernel_size=(3, 3), stride=(1, 1), padding=(1, 1))
    (3): ReLU()
    (4): ConvTranspose2d(40, 80, kernel_size=(3, 3), stride=(1, 1), padding=(1, 1))
    (5): ReLU()
    (6): ConvTranspose2d(80, 150, kernel_size=(3, 3), stride=(2, 2), padding=(1, 1))
    (7): ReLU()
    (8): ConvTranspose2d(150, 240, kernel_size=(3, 3), stride=(1, 1), padding=(1, 1))
    (9): ReLU()
    (10): ConvTranspose2d(240, 320, kernel_size=(3, 3), stride=(1, 1), padding=(1, 1))
    (11): ReLU()
    (12): ConvTranspose2d(320, 128, kernel_size=(3, 3), stride=(1, 1), padding=(1, 1))
    (13): ReLU()
    (14): ConvTranspose2d(128, 128, kernel_size=(3, 3), stride=(2, 2), padding=(1, 1))
    (15): ReLU()
    (16): ConvTranspose2d(128, 64, kernel_size=(3, 3), stride=(1, 1), padding=(1, 1))
    (17): ReLU()
    (18): ConvTranspose2d(64, 64, kernel_size=(3, 3), stride=(2, 2), padding=(2, 2))
    (19): ReLU()
    (20): ConvTranspose2d(64, 32, kernel_size=(3, 3), stride=(1, 1), padding=(2, 2))
    (21): ReLU()
    (22): ConvTranspose2d(32, 32, kernel_size=(3, 3), stride=(2, 2), padding=(1, 1))
    (23): ReLU()
    (24): ConvTranspose2d(32, 16, kernel_size=(3, 3), stride=(1, 1), padding=(1, 1))
    (25): ReLU()
    (26): ConvTranspose2d(16, 3, kernel_size=(3, 3), stride=(1, 1))
    (27): Sigmoid()
  )
)

Training:
lr=0.001 | wd=0.005

Epoch: 1 | Loss: 5.6242


Epoch: 2 | Loss: 5.6204


Epoch: 3 | Loss: 5.6231


Epoch: 4 | Loss: 5.6199


Epoch: 5 | Loss: 5.6205


Epoch: 6 | Loss: 5.6203


Epoch: 7 | Loss: 5.6204


Epoch: 8 | Loss: 5.6225


Epoch: 9 | Loss: 5.6215


Epoch: 10 | Loss: 5.6208


Epoch: 11 | Loss: 5.6223


Epoch: 12 | Loss: 5.6213
…
